…
        "travel_time_seconds_All_before",
        "travel_time_seconds_All_after",
        "data_density_All_before",
        "data_density_All_after",
        "data_density_Pass_before",
        "data_density_Pass_after",
        "data_density_Truck_before",
        "data_density_Truck_after",
        "year_before",
        "year_after",
        "month_before",
        "month_after",
        "day_before",
        "day_after",
        "hour_before",
        "hour_after",
        "dayofweek_before",
        "dayofweek_after"
    ],
    "target": "VOL",
    "training_split": 0.1,
    "model": "LinearNN(\n  (fc1): Linear(in_features=48, out_features=1200, bias=True)\n  (bn1): BatchNorm1d(1200, eps=1e-05, momentum=0.1, affine=True, track_running_stats=True)\n  (fc2): Linear(in_features=1200, out_features=600, bias=True)\n  (bn2): BatchNorm1d(600, eps=1e-05, momentum=0.1, affine=True, track_running_stats=True)\n  (fc3): Linear(in_features=600, out_features=600, bias=True)\n  (bn3): BatchNorm1d(600, eps=1e-05, momentum=0.1, affine=True, track_running_stats=True)\n  (fc4): Linear(in_features=600, out_features=300, bias=True)\n  (bn4): BatchNorm1d(300, eps=1e-05, momentum=0.1, affine=True, track_running_stats=True)\n  (fc5): Linear(in_features=300, out_features=1, bias=True)\n  (dropout): Dropout(p=0.15, inplace=False)\n)",
    "model_version": 1,
    "model_top": "LinearNN(\n  (fc1): Linear(in_features=48, out_features=1200, bias=True)\n  (bn1): BatchNorm1d(1200, eps=1e-05, momentum=0.1, affine=True, track_running_stats=True)\n  (fc2): Linear(in_features=1200, out_features=600, bias=True)\n  (bn2): BatchNorm1d(600, eps=1e-05, momentum=0.1, affine=True, track_running_stats=True)\n  (fc3): Linear(in_features=600, out_features=600, bias=True)\n  (bn3): BatchNorm1d(600, eps=1e-05, momentum=0.1, affine=True, track_running_stats=True)\n  (fc4): Linear(in_features=600, out_features=300, bias=True)\n  (bn4): BatchNorm1d(300, eps=1e-05, momentum=0.1, affine=True, track_running_stats=True)\n  (fc5): Linear(in_features=300, out_features=1, bias=True)\n  (dropout): Dropout(p=0.15, inplace=False)\n)",
    "model_top_loss": 4671.43212890625,
    "model_R2": 0.9890816807746887,
    "model_within_percent": 74.73236872430229,
    "model_filename_root": "../models/model_",
    "model_size": 600,
    "train_loader": "<torch.utils.data.dataloader.DataLoader object at 0x7474ce650410>",
    "test_loader": "<torch.utils.data.dataloader.DataLoader object at 0x7474cf6c0290>",
…
